document_classifying/my_model.pth (torch, 3099 bytes, 3 tensors)

embedding.weight f4 [1, 64]
00000000: 8695 bdbe ac55 e93e 9096 87be f298 c43c
00000010: de93 4ebe 2761 e63e 5942 4cbe 129c 2ebe
00000020: 4ef6 9fbc b35e 60be f117 0b3e 5256 48be
00000030: 1007 cbbc 1a9e cf3d 76ae ac3d d267 a9be
00000040: 779f c7be 355a 6fbe 8ab9 3cba 154d f83e
00000050: d8ed a73e 95b5 98be 52b3 7e3e cb4c 6ebd
00000060: a22a d73d 9b11 4bbe ef65 ba3e be70 d9be
00000070: 9829 89be e42f 00be e671 fc3d bae3 663e
00000080: 4911 f0bd 0336 48be 52fb 91be eb8b c3be
00000090: d65b 8fbe 24aa 90bc f5b9 fd3d d646 dc3d
000000a0: 6c74 71bc cb11 cabe 835c 00be 2b64 f43d
000000b0: 1939 40be 98e2 693e 7d50 30be 12f6 ac3d
000000c0: 2bc6 febe 777c f43e 1bab 96bd 8ec5 f63e
000000d0: 67ba 093e 7af7 f63d 645e 043f 809d c83e
000000e0: 2808 4f3d 3ea2 dd3d 3793 c13c 5147 1fbe
000000f0: 3ecf c63e 4b8f d3be 23b8 1ebe 5ad8 5f3d
-0.3702814 0.45573175 -0.26482058 0.023998711 -0.20173594 0.44995996 -0.19947185 -0.17051724
-0.019526627 -0.21911125 0.13583352 -0.19564179 -0.024783641 0.10137577 0.08431713 -0.3308702
-0.3898885 -0.23374255 -0.00071992783 0.4849631 0.32798648 -0.29826036 0.24873093 -0.058178704
0.105061784 -0.19830935 0.36405894 -0.42468828 -0.26789546 -0.12518269 0.12326412 0.22547808
-0.11722047 -0.19551854 -0.28512055 -0.38192686 -0.27999753 -0.017659254 0.12388984 0.107556984
-0.01473723 -0.394667 -0.1253529 0.11933168 -0.18771781 0.22840345 -0.17218204 0.08445372
-0.49760565 0.4775121 -0.073568545 0.48197597 0.13450013 0.12058921 0.5170653 0.39182663
0.050544888 0.10821961 0.023629768 -0.15554549 0.38829988 -0.4132026 -0.1549993 0.05464969

fc.weight f4 [4, 64]
00000000: ae61 e7be e04e 4c3e 7d38 debe 480b 5ebe
00000010: b453 cd3e 5e9c 883e c04b b6be 3e42 883d
00000020: 950f 66be b03f 9d3e 9d7d 18be 3c2a 66be
00000030: ed04 b2be cd1e b83e bbbf ea3e ece4 41bd
00000040: 6f07 9cbe b090 eebe efd9 93bd 01ef 2a3d
00000050: 992f 27be a2e7 063e 5882 0d3e ad99 b23e
00000060: 5907 ed3d ba0e b53e 576c edbe ee9c 47be
00000070: c108 2f3e 176f 9e3e 2b8f a0be 8aa5 a2be
00000080: 729c 9a3e bf7f f93e c3c5 f33e 81c4 9b3e
00000090: b1b2 e13e b8f5 083e 9291 8ebe 059c d03e
000000a0: e196 90be ba89 be3e ff69 023d 16a4 4f3e
000000b0: b16b 8d3c d271 c13e 9305 e93e ad5c 30be
000000c0: 0015 85bd c3ab a23e f55f d93e aa08 19be
000000d0: 2d0a e2be 8aa6 213e dbca 82be e0e9 e03e
000000e0: 9b8f 9e3e c212 6cbe 9c4c c93e c26e 9dbd
000000f0: d858 643e 2754 d6be d642 73be 3558 98be
00000100: 151a 4fbe 39ea f3be f6eb 6c3d 123f 92be
00000110: 032b 4abe e087 de3e c0f8 cb3d b378 003f
00000120: 5081 efbe d596 b6be 7dc5 2ebd d6cf a0be
00000130: 7a79 a93e 519f 933e 9dfa a43e baf1 0dbe
00000140: a185 7a3e e442 80be 87f7 dcbe 1b1b babd
00000150: 58c5 ce3d fa38 bdbe faf2 ed3e 4fc4 5abe
00000160: ce0d d9bd 28cd 0ebe 2153 0d3e fbfb d7bd
00000170: 30a4 9d3e 2ffa 203b a405 523d c60b c43c
00000180: 46ab dabe 1cab b9be 3e1c 9cbe 7a66 09be
00000190: 7dd9 d7bd ea31 dcbe 39b9 adbe 39ec eabe
000001a0: 77dd 02be 9964 2d3e 6ee6 bd3d 97e7 aebe
000001b0: e405 4a3e 7d6a 93be 5fa1 1bbe b671 8a3e
000001c0: ff03 a63d 7e95 afbc 5f27 a33c 0d2f dcbe
000001d0: 5a36 a13e 8dec 863e 11a9 f5be f839 993e
000001e0: 2047 c13e d503 4f3e fa6c a3be c914 853d
000001f0: a7f9 83be 4927 39bd af0f 8e3e 9e32 553e
00000200: 6f32 06be 5bb9 4ebe 500e d73d a36e 40bd
00000210: 894f e5bd 820e b7bc 8c69 983e b05a c63e
00000220: 0500 febe 2b19 063e 9ba3 553d b5cd 503e
00000230: 6d60 f33e 03c6 a4be 15e6 36be edfb 5f3d
00000240: aa98 c33e a02b cabe 4031 a4be 4c91 5b3d
00000250: c3a4 053e 1095 aebd 76db 0cbe dedb 883e
00000260: cfbc 91be 62d7 a3bd e6d5 b1be 99ad cf3e
00000270: 9cd3 ffbd 1427 f43c adca 96bd 5b15 f63d
00000280: 0a2d 83be 1f24 773e 3dda 883e ef73 c53e
00000290: 9417 d13e 7715 93be 49ba b9be f499 223e
000002a0: d59f c2be f18b a4be 149f fd3c 4ad8 a0be
000002b0: 2752 ba3e 2809 1b3e e1fb 65be 2d09 ccbd
000002c0: 0447 d7be 6d3e b23e 9833 ae3d 5a7a d33d
000002d0: d84d afbd 64e1 ad3e 2d5a 093f b144 ea3e
000002e0: 1bad f1be 008e d3be 6d16 153e 6c41 f2be
000002f0: ed29 bebe b4b4 8bbe 803d 7cbd cede dd3c
00000300: 0b4f c83e 26bf 8d3e d103 f23e 1226 193e
00000310: 876a 303d de23 ae3e c4ff 2b3e b192 953e
00000320: a0e7 63bd 2ec4 e9be 9239 b13e 8b86 963e
00000330: c832 cebd 7202 97bd 2b0c 753e c205 3a3d
00000340: 44ea f3be d0d3 8dbe 8e29 ef3e ae2f 463e
00000350: 2325 853e eadb 91be 5c7f b0be 8149 1cbe
00000360: 0cad bfbe 1e8f 64be 5cc3 bfbe 9bfa 2c3e
00000370: 15de a63e 2564 523e bead bcbe 8612 de3d
00000380: 15ee b53d 5402 4abe 3d00 f83e cc40 d7bc
00000390: b981 773e 2f3a 17be 5977 ad3e 7ff6 f23e
000003a0: d69e f63e c50b f4bd aa44 f73e cd42 353e
000003b0: 3d02 83bc b962 3c3c 0e93 b13c 7dce c03e
000003c0: 1f10 9bbe bcb0 e73d ebc7 f7bd ed33 d43e
000003d0: 71ce 5f3d 7c9c 0e3e cae5 2e3e 4cbf b4be
000003e0: 697b 94be fd71 f2be 88a5 263e b2a3 e3be
000003f0: 9a23 a6be 7e43 c53e 9365 5dbe 4f1b dcbe
-0.4519171 0.19951963 -0.43402472 -0.21683991 0.40102923 0.266818 -0.35604668 0.0665326
-0.22466882 0.30712652 -0.14891668 -0.22477049 -0.34769383 0.35961 0.45849404 -0.047337458
-0.3047442 -0.46594763 -0.07219302 0.041731838 -0.16326751 0.13174298 0.13819253 0.3488287
0.11573667 0.35362798 -0.4637172 -0.19493458 0.17093183 0.3094413 -0.31359228 -0.3176692
0.30197483 0.48730275 0.47611818 0.30423358 0.44081643 0.13374984 -0.27845436 0.40744033
-0.2824011 0.37214452 0.031839367 0.20277438 0.017263265 0.3778215 0.45512065 -0.17222853
-0.06498146 0.3177167 0.42456022 -0.14944711 -0.44148389 0.15786186 -0.2554539 0.43928432
0.30968937 -0.2305403 0.3931626 -0.07687141 0.22299516 -0.41861078 -0.23755965 -0.29754797
-0.20224793 -0.47639635 0.057842217 -0.28563744 -0.1974297 0.4346304 0.09959555 0.5018417
-0.46778345 -0.3566195 -0.04266881 -0.31408566 0.33100492 0.28832486 0.32222453 -0.13861743
0.24465038 -0.25051033 -0.43157598 -0.09087201 0.10096234 -0.36957532 0.4647444 -0.21363948
-0.10598336 -0.13945448 0.13801242 -0.10546108 0.30789328 0.0024563184 0.05127491 0.023931395
-0.42708796 -0.3626336 -0.30490297 -0.13417998 -0.105395295 -0.4300683 -0.33930376 -0.4588335
-0.12779795 0.16932906 0.092724666 -0.34161064 0.1972881 -0.28792182 -0.15198277 0.2703988
0.08106231 -0.021433588 0.019916235 -0.43004647 0.3148678 0.2635235 -0.4798055 0.2992704
0.37749577 0.20216306 -0.3191908 0.06498105 -0.25776407 -0.04520348 0.2774634 0.2082009
-0.13105176 -0.20187895 0.10500777 -0.04698051 -0.11196811 -0.022345785 0.29768026 0.38741064
-0.4960939 0.13095538 0.05215798 0.20390971 0.47534505 -0.3218232 -0.17861207 0.054683615
0.3820241 -0.39486408 -0.32068825 0.053605363 0.13051133 -0.08524525 -0.13755593 0.26730245
-0.28464362 -0.080000654 -0.34733504 0.40562132 -0.12491533 0.02980379 -0.07362876 0.12015792
-0.256203 0.24134873 0.26729003 0.38565013 0.408383 -0.28727314 -0.36274937 0.15879041
-0.38012567 -0.32138017 0.030959643 -0.31415015 0.36390802 0.15140212 -0.22459365 -0.09962688
-0.42046368 0.34813252 0.085059345 0.10326071 -0.085597694 0.33961022 0.5365322 0.45755532
-0.47202381 -0.41319275 0.14559336 -0.47315538 -0.37141362 -0.27286303 -0.06158209 0.02708378
0.39122805 0.27684897 0.47268537 0.14955929 0.043070342 0.3401174 0.16796786 0.2921348
-0.055640817 -0.45657486 0.34614235 0.29399523 -0.100682795 -0.07373513 0.23930423 0.045415647
-0.47639668 -0.27700663 0.4671139 0.19354126 0.26004896 -0.28488094 -0.34472167 -0.15262415
-0.37436712 -0.2232022 -0.37453735 0.16892473 0.3259131 0.20546015 -0.36851305 0.10843377
0.08883301 -0.1972745 0.48437682 -0.026276015 0.24170579 -0.14768289 0.33880118 0.47453687
0.48168057 -0.11916307 0.48294574 0.17701264 -0.015992278 0.011498147 0.021676566 0.37657538
-0.30285737 0.11313006 -0.12098678 0.41445866 0.054640237 0.13926882 0.17079845 -0.35302198
-0.29000404 -0.4735259 0.16274083 -0.44460827 -0.32449037 0.38528055 -0.21620779 -0.42989585

fc.bias f4 [4]
00000000: cb51 0dbd 8863 6ebc 0334 b93d 397d 29bd
-0.034501832 -0.014550097 0.090431236 -0.041379187
